Torch/Torch2/MNIST-logistic.pth (torch, 32513 bytes, 2 tensors)

linear.weight f4 [10, 784]
000000 93 3f ef bc 43 26 09 bd 8e 19 56 bc 6e b7 71 bc
       -0.02920512 -0.033483755 -0.013067616 -0.014753206
000010 0a a7 d5 3c 93 44 d1 bb 25 76 94 bb c1 6a 60 3c
       0.026080627 -0.0063863485 -0.0045306855 0.013697327
000020 d8 a7 e5 bc c7 3f 82 3c f1 9c f0 bc 9c 0f 80 3b
       -0.028034136 0.015899552 -0.02937171 0.003908111
000030 a2 fe cf 3b 8c 90 c8 3c cb d4 d3 bc 36 9b 57 bc
       0.0063474933 0.024482988 -0.025858304 -0.013159564
000040 b7 ff 89 ba 25 05 48 3b 0a 59 01 3d 61 02 74 3c
       -0.001052848 0.0030520645 0.031579055 0.014893145
000050 80 4f 01 3c ca f7 0a bb 37 f1 d9 3b 63 72 dc 3c
       0.007892489 -0.0021204823 0.0066510695 0.026910013
000060 05 38 42 3c dc f7 74 3c 7c e9 43 bc 13 87 d0 3b
       0.011854176 0.014951672 -0.0119575225 0.0063637584
000070 b7 3d 1a b9 ca 75 36 bb a1 21 4d 3c 63 9c 92 3c
       -0.00014709575 -0.0027841204 0.012520225 0.017896837
000080 f4 87 0f bd b5 09 af 3c 75 46 4b bc 84 52 31 3c
       -0.035041764 0.021366933 -0.012406935 0.010822896
000090 6d 51 b1 bb 69 36 28 3c 21 9a be bc 58 00 4d 3a
       -0.005411318 0.010266879 -0.023266854 0.00078201806
0000a0 3e 87 0d 3d 3b bc 11 bd 28 92 d8 bc b7 7f c9 ba
       0.034552805 -0.0355799 -0.02643688 -0.0015373145
0000b0 90 37 30 bc b3 7b d0 3c b3 c8 96 bb 49 5e cb 3c
       -0.010755435 0.02544961 -0.004601562 0.024825232
0000c0 53 5f 05 bd af 14 8b 3b 70 0e 25 bc 9e b3 81 3c
       -0.03256161 0.004244409 -0.010074243 0.015832718
0000d0 1e a3 ca 3c 2e d4 0d 3c 5e 1c c0 bc fa 5f 0b 3d
       0.024735983 0.008656545 -0.023451027 0.034027077
0000e0 33 14 38 bc f7 a4 9e 3c ac c8 65 bc 51 ef 09 bd
       -0.011235285 0.01936577 -0.014024895 -0.033675496
0000f0 95 04 46 3c 84 ec 76 3c 45 f5 05 bd 7d 12 82 bb
       0.012086053 0.015071038 -0.03270461 -0.003969489
000100 ad 24 c6 bc aa e9 cf bc 17 9b 94 3c be 58 a8 bc
       -0.02418741 -0.025379974 0.018140359 -0.020550128
000110 18 6c 02 bd 37 9a 14 bd 30 31 c5 bc 39 a3 31 3c
       -0.031841367 -0.036279883 -0.024071306 0.010842138
000120 9f 1a 26 bd 1b 7c cf 3c 06 d0 17 bc b3 c2 26 3b
       -0.04055273 0.025327733 -0.009265905 0.002544564
000130 ce b8 07 3d 36 f6 b5 bc fa f6 09 3d 2b d7 bc bc
       0.033135228 -0.02221213 0.0336828 -0.023051819
000140 55 bd 38 bc 5e 7a 42 bc 78 a8 e1 bc 65 bb ea 3c
       -0.011275609 -0.011869995 -0.027546152 0.02865381
000150 17 ad 37 3c a5 e5 a0 3b 80 9f d5 bb cd a9 9e bc
       0.011210701 0.0049101883 -0.006519258 -0.019368077
000160 4a b3 0f 3d ab 9f de 3c f5 0f fd bc 1a dd f3 bc
       0.035083093 0.027175745 -0.030891398 -0.029768515
000170 e2 69 47 bb c5 eb 18 bd 74 2f 1c bd ef c5 71 bc
       -0.0030428101 -0.037334222 -0.038131192 -0.014756664
000180 b0 09 87 bc 7e 3a aa bc 32 12 66 bc 95 2b 06 bd
       -0.016484112 -0.020779844 -0.014042424 -0.032756407
000190 79 5e 31 3a 52 b8 1b 3c cd 66 3d 3c 29 e5 12 bd
       0.00067660917 0.009504395 0.011560154 -0.035863075
0001a0 28 d6 9a bc 52 97 01 bd 3b 47 62 3c 38 0c 0f bd
       -0.018900946 -0.03163845 0.013810928 -0.034923762
0001b0 bd 2c f6 3c 3f 50 11 bc 06 09 6a bc 51 ff c6 bc
       0.03005063 -0.00886923 -0.014284378 -0.024291666
0001c0 17 f2 54 3c b3 11 fc 3c ca 0e 09 bd d3 4e d9 bb
       0.012997172 0.030770158 -0.03346137 -0.006631711
0001d0 5c 09 05 3b e4 14 ed bc 59 05 9d 3b 84 bd a7 3b
       0.0020299768 -0.028940625 0.0047918973 0.0051190276
0001e0 df 14 11 bd f3 20 a0 bc b4 5c 30 bc 83 ad bb 3c
       -0.035420295 -0.019546961 -0.01076429 0.022909885
0001f0 d1 19 61 bb c2 ae bc bc 6d bb e0 3a 7e 0a 1c 3d
       -0.0034347663 -0.02303255 0.0017145701 0.038095944
000200 ab 02 b0 bb 8a 0c b8 bb a0 66 05 3c a6 9b d7 3c
       -0.005371412 -0.005616729 0.0081421435 0.026319336
000210 e2 d5 97 bc bd ce da bc 5b b2 90 bc eb d5 94 3b
       -0.018534604 -0.026709909 -0.017663172 0.0045421026
000220 37 8a 7f 3b 1f 85 04 3d 16 c0 85 3c c7 c0 84 bb
       0.0038992295 0.032353517 0.016326945 -0.004051301
000230 93 f5 ea bb 9c 62 de 3b 2f ac ac 3c e4 1e 8a bc
       -0.007170388 0.0067866575 0.021078197 -0.016860433
000240 1e d3 e6 bc e1 7b 8e ba 6a cc 42 bc ec 90 35 bc
       -0.02817684 -0.0010870659 -0.011889556 -0.011081915
000250 46 53 c3 bb 2b 8a 82 bc d4 8b 32 3c 11 3e 3e bd
       -0.0059608547 -0.015935024 0.010897595 -0.04644591
000260 01 49 9e bc 98 e0 9a 3c d7 c6 d5 3c 11 10 88 3d
       -0.01932192 0.018905923 0.02609579 0.066436894
000270 cc b4 d2 3c b6 eb 8a 3c 14 61 51 3c f1 5c 41 3d
       0.025720976 0.016958099 0.012779493 0.047207776
000280 e1 d4 56 3b 9c 12 03 3b e2 54 1a bd b0 a3 39 3c
       0.0032780694 0.0020000106 -0.037678607 0.01133053
000290 c8 9b 2c ba 65 ec fe 3b 93 46 95 3b 2c 66 0d 3d
       -0.00065844925 0.0077796453 0.0045555322 0.034521267
0002a0 00 50 27 3a 20 78 ae bc 3d 36 ac 3b e0 10 5d bc
       0.00063824654 -0.021297514 0.005255489 -0.013492793
0002b0 e9 ca 00 bd e2 d2 1f bd 54 9a f1 bc b2 77 0a 3c
       -0.03144351 -0.039019473 -0.029492535 0.008451389
0002c0 7f 3d 17 bd c4 ff 79 bb d0 89 b9 bb dd d0 81 3a
       -0.03692388 -0.0038146833 -0.0056621805 0.0009904165
0002d0 93 7b d3 3c 47 0f 87 bb 0f df e8 3b bb 42 8a 3d
       0.02581576 -0.0041216942 0.007106669 0.06751009
0002e0 1b 20 a9 3d 8f 1c 00 3d 22 c8 43 3d 4b 52 d8 3c
       0.08258077 0.031277236 0.047798283 0.026406428
0002f0 97 fa 45 bb 1f a7 fc 3c df 22 80 3b 68 93 41 bd
       -0.0030209178 0.030841408 0.003910407 -0.04725972
000300 bb 14 b4 3c bb 3a 19 bd a6 e3 82 bc 92 a7 c0 bc
       0.021982541 -0.037409525 -0.015977692 -0.023517404
000310 6a 3c 18 3c ae 84 cf 3c 50 70 b6 bc 2e 27 fd bb
       0.009291748 0.025331821 -0.022270352 -0.007725618
000320 a8 92 5f bb 5e 28 22 bd e0 e1 61 bc c0 13 7a 3c
       -0.0034114514 -0.03958928 -0.013786763 0.015263498
000330 62 ff 29 bc f8 5d 0d bb 7d ea c7 bb 07 e6 bc 3c
       -0.010375829 -0.0021570902 -0.006100951 0.023058904
000340 38 07 0c bc f3 25 2b 3b d9 2e bd 3c 74 ad 3f 3d
       -0.008546643 0.0026115149 0.023093628 0.046796277
000350 af 14 81 3d 9c ab 11 3d 3b 15 ab 3d 12 ba b8 3c
       0.06302773 0.03556405 0.08353659 0.022549663
000360 52 c8 82 3d 9e c3 51 3b b1 c4 bc bc 3e 6b a7 bc
       0.06385864 0.0032007466 -0.023043009 -0.02043688
000370 0d 86 dc 3b 9d cc fd bc ef 7c 7e bc 1e 70 d1 3c
       0.0067298473 -0.030981356 -0.015532716 0.025566157
000380 0c 90 b1 3b 53 76 09 bd fe b9 06 bc a9 77 47 3c
       0.005418783 -0.03356011 -0.008223055 0.012174525
000390 8e 51 6e 3c 7d 72 b5 bc 14 07 92 3c be f0 11 3c
       0.014545811 -0.022149319 0.01782564 0.008907495
0003a0 ae f2 cf ba fd a5 83 bc d3 b8 4d 3c 09 20 95 3c
       -0.0015865171 -0.01607036 0.012556273 0.018203752
0003b0 1e 3e 46 3d 6a 46 8f 3c 05 a3 08 bc c3 2f 0c 3d
       0.048399083 0.01748963 -0.008339648 0.034225237
0003c0 ee 29 5f 3d b9 6f f6 3b 86 60 97 3d 78 e5 b1 3d
       0.054483347 0.0075206426 0.07391457 0.08686346
0003d0 4a c9 fb 3c 4a 4d f3 3b ca 99 28 3c 65 56 8c 3c
       0.03073563 0.007424985 0.010290572 0.01713104
0003e0 59 54 8a 3c 09 5e 05 bd 36 82 bb bb 2a 2b ac bc
       0.016885923 -0.032560382 -0.0057223095 -0.021016676
0003f0 3b a5 e8 bc 56 19 82 3c f3 6f 7d 3c 69 60 4e 3c
       -0.0283991 0.015881222 0.015468585 0.012596228

linear.bias f4 [10]
000000 db e0 5a bd c5 15 b3 3d b6 54 49 bd 83 b9 30 bd
       -0.053437095 0.087443866 -0.049153052 -0.043145668
000010 c0 5b 30 3d 20 05 95 3d c1 51 ec bc 38 10 a6 3c
       0.04305625 0.07276368 -0.028847577 0.020271406
000020 36 a1 7a bd 8c 16 df 3a
       -0.0611889 0.0017020269
